classification/results/gridai/model.ckpt (torch, 915339 bytes, 69 tensors)

model.conv1.weight f4 [16, 5, 3, 3]
000000 03 7b 91 3d 97 07 34 3e 1c 9f a9 3e 40 3e e8 3e
       0.07103541 0.1758102 0.33129203 0.45359993
000010 bd 07 28 3e c4 85 83 be 02 95 8d 3d e4 d0 a1 3e
       0.16409202 -0.25687993 0.069131866 0.31604683
000020 81 03 a3 3d 6b 3b 92 3c 78 17 23 be 82 cc 2a 3d
       0.07959653 0.017850598 -0.15926921 0.04169894
000030 dd e1 a0 3d a0 57 5e bd d3 9a 05 be c1 64 19 be
       0.0785558 -0.054282784 -0.13047342 -0.14979841
000040 1c 0c 62 3e 9b 96 da 3d e2 d3 c1 bd b8 f2 b7 3e
       0.22074932 0.10673257 -0.094642416 0.35927367
000050 a7 10 87 bd 6e 5a cd bb 91 7a 13 bd 72 8e 22 be
       -0.06594973 -0.0062668836 -0.03600556 -0.15874651
000060 75 b2 51 be be 51 39 c0 47 88 ed be bd 13 2a bd
       -0.20478232 -2.8956141 -0.46393034 -0.04152273
000070 24 95 06 be da 81 2a 3d 87 44 5c be ff c9 ac bc
       -0.1314283 0.041627742 -0.21510516 -0.021092413
000080 42 8b 63 3d 59 f8 46 be e7 78 1f 3e 0a 00 ce bd
       0.05555273 -0.19430675 0.15573464 -0.10058601
000090 36 72 0b be ef 56 81 bd d3 98 15 be c1 bf c6 bd
       -0.13617787 -0.063154094 -0.14609079 -0.09704543
0000a0 de 3d 8e bd 1a 02 71 3c 01 e1 13 3e 33 73 b8 be
       -0.06945394 0.014709974 0.14441301 -0.3602539
0000b0 f5 f5 89 be da c8 f3 3d 5d d1 2e 3e d8 28 27 be
       -0.26945463 0.11903544 0.17072053 -0.16324174
0000c0 e1 9f a0 3f 52 c3 4c bf dc 39 75 3e 2e 5c 9c 3e
       1.2548791 -0.79985535 0.23947853 0.30539078
0000d0 e5 0b 07 be ac ea 9e bd eb 99 b1 bd 44 25 ec 3b
       -0.13188131 -0.07759604 -0.08671936 0.007206591
0000e0 7b a8 a0 bd 97 d0 62 bf 1b 24 8c 3f 08 41 04 3f
       -0.07844635 -0.8859953 1.0948519 0.5166173
0000f0 ea 73 22 be 73 3a 12 3d 49 94 5d be 3a dd e3 bd
       -0.1586453 0.035700273 -0.21638598 -0.1112618
000100 a9 14 9f 3d bf d3 86 be fd 0a 9a be 01 f7 6e be
       0.077676125 -0.26333424 -0.30086508 -0.23336412
000110 83 d1 27 bf d6 b4 02 bd ab a2 3d bc 2d e4 2c be
       -0.65554065 -0.03191074 -0.011574428 -0.16883917
000120 a2 a4 6a 3e cb 3c 12 be 27 e4 f7 bc e3 af 56 3e
       0.22914365 -0.14281003 -0.030260159 0.20965533
000130 37 b3 1d be a9 b8 83 3e 5e 49 22 bd 95 50 24 3e
       -0.15400396 0.25726822 -0.03962075 0.16046365
000140 f5 55 20 3e 4d 3e ab 3d 7a 8b db bd 31 5e cc bc
       0.1565779 0.08361492 -0.107199624 -0.024947258
000150 02 15 ec be af 2f 09 3e e9 c1 d3 3f fb 8f 83 bd
       -0.46109778 0.13397096 1.6543552 -0.064239465
000160 70 4a eb bd 02 6e 87 3e e6 32 2f 3e 76 9d 2c 3f
       -0.11488807 0.26451117 0.1710926 0.67427766
000170 1b 1d 98 be 4b ad 2f bb aa 8d 0c be 7d dc 41 3e
       -0.29709706 -0.0026806172 -0.13725916 0.18931766
000180 0e 3c 61 3d a0 4d c3 bc f3 9c 39 3e 54 af 8b 3d
       0.054988913 -0.023840725 0.18126278 0.068205506
000190 af f4 cc bd 79 bd 2e 3e 64 52 49 3e a3 b1 bc 3e
       -0.10007607 0.17064466 0.19660336 0.36854276
0001a0 67 a9 6b be f1 d2 f4 3b 3e 46 3a 3e 4b 33 24 3e
       -0.2301384 0.0074714352 0.18190858 0.16035192
0001b0 05 1d 6a bc b1 61 05 3d 03 02 14 3e 6e 0e 03 be
       -0.014289145 0.03256387 0.14453892 -0.12798473
0001c0 42 92 26 be 41 37 86 bd b7 20 32 3c 63 84 cf bc
       -0.1626673 -0.065535076 0.010872058 -0.025331682
0001d0 56 d0 26 3e 46 30 23 bd 53 0e 26 3e 33 05 f9 3c
       0.16290411 -0.03984096 0.16216402 0.030397987
0001e0 1e 98 12 3e 94 36 81 bd c8 a1 98 3d a8 cb e8 3b
       0.1431584 -0.06309238 0.07452732 0.007104356
0001f0 47 38 1e 3d 53 5a 84 be 9e c3 f1 bd 19 75 b4 3e
       0.03862789 -0.25850162 -0.11804889 0.35245588
000200 8b cb dc 3e b7 51 8f be 76 78 c0 3e c0 46 67 c0
       0.4312404 -0.2799203 0.37591904 -3.6136932
000210 36 28 04 3e 7e bc 3c be fd e5 07 bf 54 42 ff 3d
       0.12905964 -0.18431279 -0.5308531 0.12463823
000220 c3 84 5d 3e ce 1c 30 ba 16 fd 5a 3e 7c ec cb 3e
       0.21632676 -0.00067181594 0.21385607 0.3982886
000230 41 3b b3 3c 8b 2c d2 be 47 13 71 be 3d 33 96 be
       0.02187884 -0.4104961 -0.2354251 -0.29335967
000240 5f a1 77 3e b4 30 4c 3c 4d 29 4b 3e da da c9 3d
       0.24182652 0.012462784 0.19839974 0.09856196
000250 aa 06 37 3e 48 c4 d1 3d 4c fb 2d 40 43 f1 5e bf
       0.17873636 0.10242516 2.718463 -0.87086886
000260 2b f4 67 be 34 99 0b 3d 36 63 bf 3c 97 55 ea 3c
       -0.22651736 0.034081653 0.023362737 0.028605266
000270 be 0a 34 bd 57 34 31 3d 10 86 24 bc 96 8c 62 3c
       -0.043955557 0.043262806 -0.010041729 0.013827464
000280 99 86 1d bd c8 e1 81 be b8 83 c3 3c 6a 81 08 bd
       -0.03845844 -0.2536757 0.02386652 -0.033326544
000290 70 70 d4 bd ff 97 f9 3d 7f b1 bd 3d 8a 60 42 bd
       -0.10373008 0.12187194 0.0926237 -0.047455348
0002a0 14 80 19 3f 5c b5 5b bd e1 a3 b6 3d bd 10 50 3e
       0.59961057 -0.053639755 0.08917976 0.20318885
0002b0 16 38 03 3e 7b 65 92 3d 9b 24 40 3e 9c a6 c0 3d
       0.12814364 0.07148262 0.18763964 0.09406778
0002c0 b4 21 83 3d 3e 12 54 3e 25 17 c9 be a0 bb 7e 3f
       0.06402913 0.20710084 -0.3927547 0.99505043
0002d0 d8 31 11 be 2b 21 13 be 87 7e 50 3e 81 d1 f6 bd
       -0.1417917 -0.14368121 0.20360766 -0.120516784
0002e0 dd c8 82 3e 19 95 19 be d8 51 98 be b0 2a ed 3d
       0.25543872 -0.14998282 -0.29749942 0.115804076
0002f0 a2 0f 59 bf 4d e7 b6 bc 62 08 95 bc 69 e8 e4 bd
       -0.8478948 -0.02232709 -0.018192474 -0.11177141
000300 9f 14 65 bd 7d 21 77 bd 20 a2 18 bd f5 e6 91 bf
       -0.05592787 -0.06033467 -0.03726399 -1.1398607
000310 8e 0a 08 bd 4e 40 52 3c 76 db 8e 3e 85 9c 01 be
       -0.03321319 0.012832714 0.2790181 -0.12657364
000320 08 e5 dc bd 28 35 23 3e eb 4f 0d bc ce b3 e2 bd
       -0.10785872 0.15938246 -0.008625011 -0.11069451
000330 46 df 9b 3e 81 60 a0 be 22 7e 88 be 17 80 ae bd
       0.30443782 -0.31323627 -0.26658732 -0.08520525
000340 47 94 74 bc 5e e8 d0 bd 34 b6 e8 3d 63 de 0a be
       -0.01492793 -0.102005705 0.113628775 -0.13561396
000350 fc 4e 4d 3b ae 7d 2d 40 a3 91 94 3d 30 93 5f 3d
       0.0031327596 2.7107959 0.072543405 0.05458373
000360 4e ca 66 3c f8 56 2a 3e 10 af c0 bd b7 0a 36 be
       0.014086319 0.16634738 -0.094083905 -0.17777525
000370 1f 97 af 3d ba 12 7d 3c ec f1 ae 3e 83 ae 96 3e
       0.08573746 0.015446359 0.34168947 0.29430017
000380 c8 6d 61 bd c0 92 4d be 28 09 a2 be 16 5e 25 be
       -0.055036336 -0.20075512 -0.3164761 -0.16149172
000390 5f 40 9d 3f d2 8d 80 bf 64 91 36 3d fe 22 e4 be
       1.228527 -1.004328 0.04457225 -0.44557947
0003a0 f6 b7 08 3f 78 48 47 bf 75 91 3f bf ee b5 cc be
       0.534057 -0.77844954 -0.74831325 -0.3998255
0003b0 b2 c6 cf bd 3a b7 dd 3d f6 be a6 bd 85 ae df bc
       -0.1014532 0.10825963 -0.08141892 -0.027304897
0003c0 cb fd 11 3f 78 cd 11 3f af df cc 3d 34 7e ad 3e
       0.5702788 0.56954145 0.10003602 0.33885348
0003d0 12 ef ab bd 32 49 88 be c0 6c 02 3e 8b fe d3 3d
       -0.083952084 -0.26618344 0.12736797 0.103512846
0003e0 9e 34 18 bd 4c 22 2e 3f 17 09 13 be 6a 98 b2 be
       -0.037159555 0.6802108 -0.14358936 -0.34881908
0003f0 f2 72 80 be 00 3d 96 bd a8 f7 4b bd 5c 92 3e bd
       -0.25087696 -0.073358536 -0.04979673 -0.046526298

model.conv1.bias f4 [16]
000000 ed 61 bc bc 46 35 66 be 07 98 43 3d 77 93 3e 3d
       -0.022995913 -0.2248126 0.047752406 0.046527352
000010 4c be 81 bd bc 4e aa bd 15 f6 17 bd 17 74 d8 bc
       -0.063351244 -0.08315799 -0.037099916 -0.026422543
000020 44 65 21 3d 2b 5b 9f bd 39 19 5b 3e 51 e0 29 be
       0.039403215 -0.07781061 0.2139634 -0.16589476
000030 51 40 1c 3d 28 e7 ff bd 23 86 a9 be 8b 51 82 bc
       0.038147274 -0.124952614 -0.3311015 -0.015908023

model.bnormconv.weight f4 [16]
000000 6c e0 f3 3f 3b ed 8b 3f 60 e8 71 3f eb 0c 89 3f
       1.9052863 1.0931772 0.944952 1.0707067
000010 26 40 8f 3f fe 5e 84 3f 32 29 67 3f 97 66 91 3f
       1.1191452 1.0341489 0.90297234 1.1359433
000020 40 2c 81 3f 8a a1 90 3f 44 a2 96 3f 80 ae 87 3f
       1.0091629 1.1299298 1.176827 1.0600128
000030 aa 53 99 3f 03 43 ac 3f 25 86 57 3f 48 cf 9a 3f
       1.1978657 1.345795 0.84189063 1.2094507

model.bnormconv.bias f4 [16]
000000 02 d6 a5 be ba 78 f5 be a1 ca cc be 6f 6d 0d bf
       -0.32389838 -0.4794367 -0.39998344 -0.5524511
000010 87 32 b4 be 47 b5 d9 be 3e a8 a5 be 92 a5 f7 be
       -0.351948 -0.42521116 -0.3235492 -0.48368508
000020 ff ef 4a 3d a6 7b 08 bf 03 9e e4 be 6b b8 cf be
       0.049545284 -0.5331367 -0.44651803 -0.40570387
000030 0e 23 df be f9 de 78 bd 9e a9 31 be bf 51 8b 3d
       -0.43581432 -0.06075952 -0.1734986 0.06802701

model.bnormconv.running_mean f4 [16]
000000 78 14 92 bc da 02 67 be c0 72 45 3d e7 f5 3f 3d
       -0.017832026 -0.22559682 0.048205137 0.04686537
000010 ec 07 85 bd d4 8f ab bd b7 66 1a bd c4 5a f8 bc
       -0.064956516 -0.083770424 -0.037695613 -0.030316718
000020 6c 90 18 3d 36 a5 9d bd 4e b2 5d 3e 51 1c 26 be
       0.037247106 -0.07697527 0.21650049 -0.1622174
000030 c1 70 2c 3d 0a e0 07 be b9 43 a8 be c9 30 87 bc
       0.042099718 -0.13269058 -0.32864168 -0.016502755

model.bnormconv.running_var f4 [16]
000000 43 9c 20 40 6b 9e f3 3e d9 92 e9 3e 82 9e 1d 3f
       2.5095375 0.475818 0.45619848 0.6156999
000010 d2 fb 74 3f 16 4a 19 3f b0 af 04 3f 7a a9 2f 3f
       0.9569675 0.5987867 0.5183058 0.68617976
000020 3a c9 a7 3f b1 d7 0d 3f b2 12 39 3f 56 ef 66 3f
       1.3108284 0.55407244 0.7229415 0.9020895
000030 4f 6f 0c 3f 2b c5 a8 3f 0e da fe 3e 88 dd db 3f
       0.54857343 1.3185171 0.49775738 1.7176981

model.hidden1.weight f4 [256, 144]
000000 02 fd bb 3c 68 f0 06 be dd 5c a8 3e 16 87 6d bf
       0.022947792 -0.13177645 0.3288335 -0.9278425
000010 51 20 17 3f 71 ff f5 be af 74 26 3f 66 3d 22 be
       0.59033686 -0.4804645 0.65021795 -0.15843734
000020 93 57 de bc 44 7d fa bd 20 20 c0 be 79 fe da 3c
       -0.027141368 -0.12230924 -0.3752451 0.02673267
000030 89 c9 e7 bd d6 85 8b bd e6 25 a6 bc 6a df 30 3e
       -0.11317737 -0.068126366 -0.020281743 0.17272726
000040 42 5d fc bc 8c bb e3 be 6e 29 92 3e 03 8a c6 3e
       -0.030806188 -0.44479024 0.28547233 0.3877717
000050 cb 08 3b be ed 88 98 3e 6b b7 a2 be 72 62 dd be
       -0.18265073 0.29791966 -0.31780562 -0.4323917
000060 85 9d 56 bd c6 58 28 bf 61 83 de be 54 ca 36 3e
       -0.052396316 -0.6576046 -0.4345961 0.1785062
000070 96 28 0c bf 19 a8 1d be 97 8b 2d bf 2e f2 0e bf
       -0.5474943 -0.15396155 -0.6779112 -0.55838287
000080 ec e4 50 bf 64 05 79 3e 51 8a 6d 3d 79 1f 01 3f
       -0.8159931 0.24318463 0.057993237 0.5043865
000090 0f ed 0f be a4 10 dc 3e e1 b7 f0 3d 10 6e 0c bf
       -0.14055274 0.42981446 0.11753822 -0.5485544
0000a0 f0 cc 7b 3e 88 77 20 bf 00 41 96 be a5 e7 95 be
       0.24589896 -0.6268239 -0.29346466 -0.29278293
0000b0 07 cf b4 be a6 dc 27 be f6 77 0f bd e8 18 94 3e
       -0.353142 -0.16392764 -0.035026513 0.28925252
0000c0 fe da 83 be c4 27 e2 be 76 1a d3 be c9 cd 38 3e
       -0.25753015 -0.44170964 -0.41231126 0.18047251
0000d0 04 8a ae bd 61 c1 01 bf 40 53 5a be ab 84 a1 3e
       -0.08522418 -0.506857 -0.2132082 0.3154653
0000e0 01 ce b3 be 02 1a a6 3e c0 12 24 3e 56 3f bc be
       -0.35118106 0.32441717 0.16022778 -0.3676707
0000f0 97 a2 ee be 67 d7 0d 3e 2a f1 d3 bd 91 69 7a 3e
       -0.4660842 0.138517 -0.10348733 0.24454333
000100 1d bf 2b bf 46 34 c7 bc a8 15 fd 3c f0 71 28 3d
       -0.6708849 -0.024316918 0.030894116 0.041124284
000110 b7 72 92 3e b9 0b 5c 3e 62 77 6d 3d 22 55 ea bd
       0.28603145 0.21488847 0.05797518 -0.11442019
000120 07 25 de 3c 4f 97 b5 be 92 f4 ed be 31 37 4d be
       0.027117265 -0.35467002 -0.46475655 -0.20040585
000130 79 78 d7 be 3c 99 26 bd ad ed cb be a9 6a df bc
       -0.420841 -0.04067348 -0.3982977 -0.02727254
000140 e8 6f d6 bd 94 91 81 bc 92 2c 9c bb 4b 3e 16 bf
       -0.10470563 -0.015816487 -0.0047660554 -0.586888
000150 ff 47 74 bf 99 30 56 bf 37 74 f8 3a 6e 0c ca be
       -0.9542236 -0.83667904 0.0018955533 -0.39462608
000160 0c 8b ae be de 26 be 3d b9 19 e1 3e 80 ef 2a 3e
       -0.3409046 0.09284757 0.43964937 0.16692924
000170 16 b6 1a 3f e7 0a f9 3d cd 4f 76 bf 6f f4 8f bf
       0.6043409 0.121602826 -0.96215516 -1.124647
000180 95 0a 52 bd 4f 7c 21 bf 8b 9c 8a 3d 17 45 3d 3e
       -0.051279623 -0.63080305 0.067681395 0.18483387
000190 c7 5c 3a be 84 85 ed bd ff 73 f1 be 74 ff 6a 3e
       -0.18199454 -0.11597732 -0.4715881 0.2294901
0001a0 aa a4 71 be ca a0 de be 6f 4d 9d 3e db 9c 3d bf
       -0.2359797 -0.43482047 0.3072314 -0.7406747
0001b0 34 5b c7 be 95 b4 99 bd 36 bb 62 be 41 f1 86 be
       -0.3893677 -0.075051464 -0.22141728 -0.26355937
0001c0 23 b0 61 bf 70 27 de 3d 0b bf d0 3d f2 d8 9e 3e
       -0.8815939 0.10847366 0.101926886 0.3102489
0001d0 f0 b7 75 3e 34 10 c1 3e 52 e5 3d be 5a 64 91 3e
       0.23995948 0.37707675 -0.1854451 0.28396875
0001e0 68 d8 e2 be 53 87 e1 bd 4c 19 32 bf 44 9b c5 bf
       -0.4430573 -0.11012139 -0.6956985 -1.5438008
0001f0 ee 64 c8 be 25 a3 c3 3d 25 d0 2f 3f 80 99 d2 3e
       -0.39139503 0.09552602 0.6867698 0.41132736
000200 18 c7 ae 3d f2 6f c0 be 75 58 a7 bd 3d 79 85 3d
       0.08534068 -0.37585407 -0.08171169 0.06517265
000210 5e 1f e4 be d0 b2 3d be 26 83 34 3d 30 0e 62 3d
       -0.4455518 -0.18525243 0.044070385 0.05518931
000220 ae 32 32 bf 1b 86 95 bd 4a f9 e0 bd 78 f3 07 3f
       -0.6960858 -0.07300969 -0.10985048 0.5310588
000230 dc b9 0d bd fc 32 b4 3a e8 02 c1 3e 12 fa 0a be
       -0.034601077 0.0013748105 0.3769753 -0.13571957
000240 4d a1 14 bd e3 8d fd 3c 14 a9 47 3b 56 e3 1b be
       -0.03628664 0.030951446 0.0030465769 -0.1522344
000250 95 f3 f0 be e9 fe a2 bd 97 e3 86 bd 71 c8 ce be
       -0.47060838 -0.079587765 -0.06586378 -0.403873
000260 3c e0 fe be fb ef 36 3e 30 25 7b bd 62 76 08 bd
       -0.49780452 0.17864983 -0.06131476 -0.033316024
000270 4d 3d 8c be 05 56 51 be 4b d6 87 bd d1 6f 5c be
       -0.2739052 -0.2044297 -0.0663267 -0.2152703
000280 17 00 90 bb db 05 9f bd 22 87 d7 3d 25 77 55 3e
       -0.004394542 -0.07764789 0.105238214 0.20846231
000290 7e 45 6c be 36 c0 1d 3e f4 53 d1 3c 8e 26 75 be
       -0.23073384 0.15405354 0.025552727 -0.23940489
0002a0 e6 b4 ad 3e dd 82 f3 3d e7 34 4f be 06 95 a1 be
       0.33927077 0.118901946 -0.20235024 -0.31559008
0002b0 6a 3d 7a be ad ae c0 3c bc fa b5 bc e6 5c d4 3c
       -0.2443749 0.023520792 -0.022214286 0.025923204
0002c0 af fb f9 3d 47 aa 32 3e 0a 16 9c 3e 7a 7d 58 3d
       0.12206208 0.17447768 0.30485564 0.05285404
0002d0 67 53 b6 be e2 be b8 3e 08 5a 10 3e be dc e5 3b
       -0.35610506 0.36083132 0.14096844 0.00701484
0002e0 51 55 c4 bc 47 73 21 be 10 44 a5 3c da 30 49 be
       -0.023966463 -0.15766631 0.020174056 -0.19647542
0002f0 a6 a1 3b bd 86 69 5a 3e 35 11 4d bc 4a 7a 99 3e
       -0.045808457 0.21329316 -0.0125163095 0.29976112
000300 d3 89 ba bd aa 16 45 be 4d a1 82 3c c6 15 b9 bd
       -0.09108319 -0.19246927 0.015946055 -0.09037356
000310 b1 71 b7 be 1c 47 5c bd a0 7b 97 be ef 81 67 be
       -0.35828927 -0.053778753 -0.29586506 -0.2260816
000320 2c 0a 6c 3d e5 05 2f bd 66 d4 41 3e 92 fd 84 bd
       0.05762689 -0.04273023 0.1892868 -0.06493677
000330 1a 90 16 3e 93 8c ff 3c 5b 7c 71 3d ef 1e ff bd
       0.14703408 0.03119496 0.058956485 -0.12457072
000340 80 83 23 be ad 3c 5a 3e ac e5 3b be c6 a1 37 3e
       -0.15968132 0.21312208 -0.18349332 0.17932805
000350 8d 19 28 be c6 91 df bd c3 0f 5f 3e 54 71 1c bd
       -0.16415997 -0.10916476 0.21783356 -0.038194016
000360 9f 0d 67 3e 36 0a 72 bd 67 98 36 bd 5f 96 a6 3e
       0.2256379 -0.05909177 -0.044578936 0.325366
000370 88 9a 2f be 53 0a 7d 3e 0e f8 5f be 0a ff 94 bd
       -0.17148793 0.2471097 -0.21871969 -0.07275207
000380 f5 22 c6 be 8f d2 b9 bd fc 2f 0c 3d a8 f6 43 bd
       -0.38698545 -0.09073364 0.03422545 -0.04784265
000390 ce c2 e9 bd a8 ca a8 bd 59 a3 cb be b7 13 d8 bd
       -0.11414109 -0.082417786 -0.39773062 -0.10550635
0003a0 5b 19 93 be 23 4b 42 be 1a 79 e5 bc c9 56 e0 be
       -0.28730282 -0.18973975 -0.028011847 -0.43816212
0003b0 3e 7c 93 be 0f ba 24 3e 0f 0c 9f bd 70 af 05 3e
       -0.28805727 0.160866 -0.07765972 0.13055205
0003c0 d3 95 dd bd 8c 78 be bd 17 c1 68 be 8a 3f 02 3d
       -0.10819592 -0.09300336 -0.22729908 0.031798877
0003d0 08 59 f9 be 65 42 d0 bd 82 07 a0 be 7c 4b c1 3e
       -0.48700738 -0.10168914 -0.31255728 0.37752903
0003e0 d6 0b c4 3d 0f 39 87 3e ca cc 9f 3d 6e 21 a0 3d
       0.0957257 0.2641072 0.07802732 0.07818876
0003f0 ed 67 08 3c f6 7a 81 3e 54 9d ac 3c ec 29 c9 bd
       0.008325559 0.25289124 0.021071114 -0.09822449

model.hidden1.bias f4 [256]
000000 c7 16 86 3d e5 8d 36 3b 79 0c f3 bc 33 fd 08 bd
       0.06547313 0.0027855572 -0.029669033 -0.033444595
000010 f0 f8 c2 3c 88 e6 82 3c a0 44 73 bd 6a dd 8f 3d
       0.023800343 0.015979066 -0.059391618 0.07024653
000020 5b ab 1b bd fb 50 12 bc 53 2c 85 3d 82 73 2a bd
       -0.038005214 -0.00893044 0.06502595 -0.041614063
000030 59 b4 18 3d 10 80 14 bd 6b 39 9a 3d a5 90 25 3d
       0.037281368 -0.036254942 0.07530483 0.040421147
000040 e0 1c 0b bb bd de 29 3b 89 07 a9 3d 70 73 87 3d
       -0.0021226928 0.0025920116 0.0825339 0.06613815
000050 44 f0 be 3c 5c cb f1 3b 01 84 40 bd 5e 1b 8b 3d
       0.023307927 0.0073789787 -0.04700089 0.06792329
000060 3e ab 92 bd 7f 55 0a bd bb 15 e3 3b 8f db c3 bc
       -0.07161568 -0.03377294 0.0069300807 -0.023908405
000070 40 51 4d 3d 34 21 89 bd 0d e1 96 3c 80 a1 5d 3d
       0.050126314 -0.06695786 0.01841786 0.054109097
000080 b4 6d c6 bb 0f 0d ac 3c 3b ef 44 bd 90 41 4a bd
       -0.006055558 0.02100232 -0.04807971 -0.04937893
000090 2e c0 0f bd 6e 78 ae 3c 77 9e 42 3d c1 4a 05 3d
       -0.035095386 0.02129766 0.047514405 0.032541994
0000a0 4e 31 41 3c 34 17 94 bd 57 46 15 bd f8 15 e2 3c
       0.01179154 -0.07230988 -0.036444034 0.027598366
0000b0 91 c9 9e bd 3c 15 7c 3c 4b c4 65 3c 0a fb 45 3d
       -0.077532895 0.015385922 0.014023851 0.048335113
0000c0 b8 0a b0 b9 f0 11 36 3c 08 ea 83 3d 7a 44 f4 3c
       -0.00033577322 0.011112675 0.06441122 0.029817808
0000d0 d0 fd 4d 3d 2e fa 6d bc 11 25 d8 bc ff 16 1a 3c
       0.050290883 -0.0145249795 -0.026384862 0.009404897
0000e0 56 ee c4 3c 38 e0 34 bd da 28 61 bd 8c 87 fe bc
       0.024039429 -0.044159144 -0.0549706 -0.031070493
0000f0 27 1b 4d 3d 38 e2 8a bd e6 f7 94 3d 32 16 fd 3a
       0.050074723 -0.06781429 0.072738454 0.0019308983
000100 66 3d 18 bd 22 67 5a 3c 04 3c 9b 3d 93 69 a0 bd
       -0.03716793 0.013330253 0.075798064 -0.07832637
000110 3f d4 19 3c ca c9 bb 3c 1a 8b 9e 3d bb 99 46 3d
       0.009388982 0.022923369 0.07741375 0.048486453
000120 00 97 7d 3d 48 20 74 bd 21 8c 91 bd bd 0b ab bd
       0.061911583 -0.0596011 -0.071068056 -0.08351848
000130 80 27 a4 bc b5 0e 72 bd 5e ab 95 bd 3a fb 97 bd
       -0.020038366 -0.059096057 -0.07308076 -0.074209645
000140 53 08 b2 3c 11 ca 60 bd 7e 45 8b bd 9c 19 44 3d
       0.021732485 -0.054880206 -0.06800364 0.047875986
000150 47 15 8f bd b4 b9 00 3d dd 81 f6 3b a8 04 2a bc
       -0.0698648 0.0314271 0.007522805 -0.010377087
000160 78 a8 85 3d d8 84 96 bd 3b f3 00 3b 1b 1e ab bd
       0.065262735 -0.07349557 0.0019676227 -0.083553515
000170 9a 07 92 bd 20 96 9c bd 4c ae 1f 3d 86 2d 86 3d
       -0.07130356 -0.076458216 0.03898458 0.06551652
000180 b4 61 c3 3c 16 fb fd bc 0a d2 89 3d 7a e3 1a 3d
       0.0238503 -0.031003516 0.06729515 0.037814595
000190 47 df 31 3b 32 e8 94 bc be 0f a6 3d 15 d9 8e bc
       0.002714114 -0.018177126 0.08108471 -0.017437497
0001a0 0a 21 83 bd eb 2b c0 bb 57 da 5c 3d d2 e9 d0 3c
       -0.06402786 -0.0058646104 0.053919163 0.02550212
0001b0 30 55 e2 bc df ed e8 3c 2e cc 84 3c 46 a2 18 3d
       -0.027628511 0.028433738 0.016210642 0.03726413
0001c0 78 31 8a bc 7c 62 98 3d c7 6f 0c 3d 66 71 68 3d
       -0.016869292 0.074406594 0.034286287 0.05674877
0001d0 8e 29 76 bd 6b 02 00 3d e6 e5 30 3d 6e 77 a0 3d
       -0.060098223 0.031252306 0.043188 0.078352794
0001e0 4d 28 89 3d f3 ca a2 bd bd b6 1b 3d 03 be a5 bc
       0.0669714 -0.07948866 0.03801607 -0.020232206
0001f0 6a 1a 3a bd 4f 75 2e bd f8 0e c9 bb 9f 6d 44 3d
       -0.045435347 -0.042592343 -0.0061358176 0.047956105
000200 2d ca 4d bd fc 3b 76 bd 3c 9c 46 3d 54 c8 09 3b
       -0.050241638 -0.0601158 0.04848884 0.0021023946
000210 3f 68 03 3d 7f b9 51 3d 38 15 a4 3d 4d 71 58 bb
       0.03208184 0.051202293 0.0801186 -0.0033026517
000220 ce 1a 9b bd 27 20 87 bd 3d 90 82 bd 2e cc 97 bd
       -0.07573472 -0.065979294 -0.063751675 -0.07411991
000230 1b dc 81 3d e1 a1 0f 3c c9 47 92 bd 3e 28 61 bc
       0.0634081 0.008766622 -0.07142598 -0.013742505
000240 3e ce 98 3d df ee 82 3d b8 bc a2 bc 96 7f ab bd
       0.074612126 0.06393217 -0.019865379 -0.083739445
000250 ad 50 70 3c 44 71 96 3d 64 10 74 3c 15 34 13 3d
       0.014667672 0.073458225 0.014896486 0.03593834
000260 b2 9d 92 3d 72 a9 3e 3d 44 b5 67 3d 0b e2 8e 3d
       0.07158984 0.046548314 0.056569353 0.06976708
000270 7f 97 98 3d 9d 3b 60 bd 56 2f 63 bd 82 2d 6d 3d
       0.074507706 -0.05474435 -0.055465065 0.057904728
000280 e6 2f 92 3c ff 1f 83 bd 3a f4 2a bd 20 5a 4e 3d
       0.017845105 -0.06402587 -0.04173682 0.05037892
000290 05 7d 9b 3d 65 05 6a bb 9a 83 56 3d 20 05 63 bd
       0.07592205 -0.0035708782 0.0523716 -0.05542481
0002a0 fe d9 43 bd 5a 87 6c 3d 72 21 b4 3c af 15 53 bc
       -0.047815315 0.05774627 0.021988604 -0.012883588
0002b0 a8 9d 19 3d ce 7b 04 bd 13 a7 76 bd fd 7f 92 3d
       0.03750387 -0.03234463 -0.06021793 0.07153318
0002c0 40 56 66 bd 43 ca 94 bd 00 9f 99 3d 83 cc 38 3c
       -0.0562346 -0.07265141 0.0750103 0.011279228
0002d0 ae c2 a3 bd 7b 83 13 3d ed 3f a9 3d ec af 98 3c
       -0.079961166 0.03601406 0.08264146 0.018638574
0002e0 49 31 09 bd 15 1a 28 bc 00 e4 66 3d 5e 73 94 3c
       -0.033494268 -0.010260125 0.05636978 0.018121418
0002f0 88 1f 85 bd 63 06 8f bd 10 ce 99 bd 1b 62 45 3d
       -0.06500155 -0.0698364 -0.075100064 0.048189264
000300 e7 b8 53 bd 54 ba dd 39 a1 0f 03 bd 72 1e 13 bd
       -0.05169001 0.0004229123 -0.031997327 -0.035917707
000310 56 fe 7c bb a1 47 5d bd ca b7 a4 bc 72 f5 27 3c
       -0.0038603744 -0.05402339 -0.020107169 0.01025139
000320 29 3c 97 bd 24 67 2c 3c cd 31 90 3d 12 ab 49 bd
       -0.073845215 0.0105226375 0.07040749 -0.04923541
000330 82 2d e8 bc 58 51 85 bc 1b b7 8e 3d 34 1b 5e bd
       -0.028342012 -0.01627414 0.06968518 -0.05422516
000340 cf c0 88 3d ae b5 05 bd d5 53 2c 3c 49 d5 49 3d
       0.066774 -0.032643966 0.010518034 0.04927567
000350 8c 36 6f 3d e6 9c 63 bd 5f 66 7e 3d 08 e8 f1 3c
       0.05840163 -0.055569552 0.062109347 0.029529586
000360 af b3 39 bb 50 55 f9 3c 76 b1 51 bd 58 62 2d 3d
       -0.002833586 0.030436188 -0.05119463 0.042330116
000370 4c 40 ee 3c 2a 55 04 3d ef 46 96 3d 47 59 19 3d
       0.029083394 0.03230778 0.07337748 0.037438657
000380 e3 a0 89 3d b8 04 03 bd ac 72 8d 3d 6b d8 c8 3c
       0.0672014 -0.031986922 0.069066375 0.024517259
000390 af 53 f3 bb 86 b1 86 bd 22 85 74 3d d0 3a 83 3d
       -0.0074257473 -0.06576829 0.059697278 0.06407702
0003a0 55 2d 6b 3d 4b 77 73 3d e0 51 0f 3d 79 9f f9 bc
       0.05741628 0.05943994 0.03499019 -0.03047155
0003b0 d9 f0 aa bd 3a 1c 6b bc c4 18 5c 3d fc 7b 97 3d
       -0.08346719 -0.014349991 0.053734556 0.07396695
0003c0 76 81 99 3d fd 5e a5 3d d5 1f 0f bd 9a b5 0e bd
       0.07495396 0.08074758 -0.034942467 -0.034841157
0003d0 de 5f c4 3b bd a2 55 bd 40 47 a7 3c 01 c8 3b 3d
       0.0059928736 -0.052157152 0.020419717 0.045845035
0003e0 76 90 13 bd 22 e7 97 bd 3e 23 1c 3b 0e e1 48 3d
       -0.03602644 -0.07417132 0.0023824717 0.049042754
0003f0 b2 2b 73 bd 81 cb 29 3a 93 ef 7d 3d 89 bc 3b bc
       -0.059367843 0.0006477163 0.061996054 -0.0114585245

model.bnorm1.weight f4 [256]
000000 95 ef 94 3f c1 9e e9 3e b9 c9 95 3f 36 a3 77 3f
       1.1635615 0.45628932 1.1702186 0.96733415
000010 bb 91 9f 3f da 28 77 3f 6e a2 8c 3f 51 e8 2d 3f
       1.2466348 0.9654671 1.098707 0.6793261
000020 1c 67 86 3f 2e 43 8d 3f 6f b3 5d 3f 55 df 9a 3f
       1.0500216 1.1036127 0.8660192 1.2099406
000030 57 25 7f 3f 17 90 8a 3f 17 54 87 3f e4 72 5f 3f
       0.9966635 1.0825223 1.0572537 0.87284684
000040 4c fa 8a 3f 09 78 72 3f 9e cc 5e 3f d2 7a 62 3f
       1.0857635 0.9471441 0.8703097 0.8846866
000050 8c 3d 77 3f 4a 94 8a 3f 40 e3 73 3f 54 18 6a 3f
       0.9657829 1.0826504 0.9526863 0.9144337
000060 58 cd 9d 3f 78 28 70 3f 7e 80 74 3f 09 e1 60 3f
       1.2328291 0.9381175 0.95508564 0.87843376
000070 f7 52 9b 3f 64 5f a2 3f bb e1 90 3f fd 0e a0 3f
       1.2134694 1.2685361 1.1318887 1.2504574
000080 e4 eb 8b 3f b2 8c 63 3f 3e c8 7e 3f 87 65 5a 3f
       1.0931363 0.8888656 0.99524295 0.8531117
000090 75 13 8a 3f d5 03 7a 3f d8 20 90 3f 0e 97 81 3f
       1.0787188 0.976621 1.1260023 1.0124223
0000a0 8b fb 76 3f 14 01 0c 3f f4 21 63 3f 91 04 8a 3f
       0.96477574 0.54689145 0.88723683 1.0782644
0000b0 fa 09 82 3f 0f 55 8b 3f b8 5b 7e 3f e9 d6 84 3f
       1.0159295 1.0885333 0.993587 1.0378085
0000c0 a3 be 6e 3f 07 72 93 3f 3a 96 8a 3f 81 d6 8a 3f
       0.9325964 1.1519173 1.0827096 1.0846711
0000d0 ff 32 4e 3f b5 42 2b 3f f9 08 6f 3f 87 83 81 3f
       0.80546564 0.6689866 0.93373066 1.0118264
0000e0 46 14 3c 3f 54 0a 95 3f 61 f9 93 3f 94 6d 80 3f
       0.73468435 1.1643777 1.1560479 1.003344
0000f0 59 40 73 3f fb 72 a1 3f 13 99 91 3f 72 e1 88 3f
       0.9502006 1.2613214 1.137484 1.06938
000100 a2 66 81 3f 3f 47 8c 3f d6 23 9e 3f 66 40 7d 3f
       1.0109446 1.0959243 1.2354686 0.9892639
000110 cd 55 8d 3f 2e e0 81 3f 56 59 95 3f e3 56 85 3f
       1.1041809 1.0146539 1.1667888 1.0417141
000120 80 c1 81 3f c8 b0 89 3f d5 c3 3b 3f 83 ea 93 3f
       1.0137177 1.0757074 0.7334569 1.1555942
000130 02 7d 8c 3f 82 ce 8f 3f a9 1d 87 3f 5c 6f 73 3f
       1.0975649 1.1234896 1.0555927 0.95091796
000140 10 d1 56 3f 79 06 80 3f a1 6e 77 3f 06 92 6d 3f
       0.83912754 1.0001975 0.9665318 0.9280094
000150 57 9e 98 3f be 29 9b 3f e0 ca 85 3f 67 f8 a1 3f
       1.1923321 1.2122114 1.0452538 1.2653931
000160 10 10 a6 3f af 7a 76 3f bb 60 6b 3f 9d 31 68 3f
       1.2973652 0.9628095 0.91944474 0.90700704
000170 a0 17 74 3f 9e 9a 67 3f 1d 24 81 3f 3a 10 9b 3f
       0.9534855 0.904703 1.0089146 1.2114327
000180 9b 35 7e 3f 43 b8 6d 3f 31 05 69 3f 9c 73 8e 3f
       0.99300545 0.92859286 0.91023546 1.1129031
000190 8a 13 6c 3f 9d 51 96 3f c3 5a 59 3f 6e 74 4d 3f
       0.92217314 1.1743656 0.84904116 0.8025578
0001a0 f6 c1 66 3f 7e 7c 6e 3f 88 a4 71 3f 8c 83 69 3f
       0.9013971 0.9315871 0.9439168 0.9121635
0001b0 1e 59 79 3f 3b cb 92 3f 82 ff 66 3f 67 18 84 3f
       0.9740161 1.1468271 0.90233624 1.0319947
0001c0 1c f6 81 3f d7 fd 87 3f a6 3a 8f 3f 77 ee 80 3f
       1.0153232 1.0624341 1.1189773 1.0072774
0001d0 56 4f 6c 3f 23 d7 bb 3f 89 a9 6a 3f a6 8d 89 3f
       0.9230856 1.467503 0.9166494 1.0746353
0001e0 f2 09 a3 3f b4 2a 88 3f 96 96 80 3f 97 7e 71 3f
       1.273741 1.0638032 1.0045955 0.94333786
0001f0 60 52 8b 3f d1 77 6f 3f 47 bc 81 3f 61 17 84 3f
       1.0884514 0.935422 1.0135583 1.0319635
000200 33 25 84 3f 67 92 31 3f a7 54 a3 3f be 2c 76 3f
       1.0323852 0.6936402 1.2760209 0.9616202
000210 0a 44 8c 3f 55 d7 7a 3f 60 b4 80 3f 71 55 7b 3f
       1.0958264 0.9798482 1.0055046 0.9817725
000220 6f 84 83 3f 3b a4 67 3f 6b cb 8e 3f 37 53 97 3f
       1.027479 0.9048497 1.1155828 1.182227
000230 03 78 9e 3f f9 2f 89 3f 6e 1b 77 3f 4d ee 6a 3f
       1.2380375 1.0717765 0.9652623 0.9176987
000240 10 13 91 3f d7 52 95 3f 5c fc 59 3f a0 32 50 3f
       1.1333942 1.1665906 0.85150695 0.8132725
000250 02 33 3b 3f 8d 3c 7b 3f c8 23 75 3f 83 23 5b 3f
       0.73124707 0.9813927 0.9575772 0.8560106
000260 86 7c 6e 3f ac 4c 71 3f 0e 15 80 3f f0 8b 82 3f
       0.9315876 0.94257617 1.0006425 1.0198956
000270 79 fa 73 3f a8 c5 3e 3f 07 6e 4a 3f 03 c3 84 3f
       0.95304066 0.7452035 0.7907414 1.0372013
000280 ae 84 57 3f 67 33 84 3f b9 49 8e 3f 17 8e 7f 3f
       0.8418683 1.0328187 1.1116248 0.99826187
000290 e2 dd 51 3f af df 73 3f 82 65 8a 3f 0d 3e 93 3f
       0.8197919 0.9526319 1.0812228 1.1503311
0002a0 e3 cb 74 3f f4 23 a2 3f f6 db 86 3f 0d db 21 3f
       0.95623606 1.2667222 1.0535877 0.6322487
0002b0 67 b2 3b 3f e3 af 82 3f 90 57 87 3f 15 7d a8 3f
       0.73319095 1.0209926 1.0573597 1.3163172
0002c0 e5 23 9d 3f 00 93 92 3f c1 e1 93 3f 64 9d 8b 3f
       1.2276579 1.1451111 1.155327 1.0907407
0002d0 99 f4 79 3f fc 88 5a 3f fe 56 31 3f 96 6e 91 3f
       0.9763885 0.8536527 0.69273365 1.1361873
0002e0 c2 b2 86 3f 9d 45 65 3f 9b 0d a7 3f 9f 21 65 3f
       1.0523303 0.89559346 1.3051027 0.89504427
0002f0 52 98 7a 3f a2 af 73 3f 71 6a 89 3f cf 39 84 3f
       0.9788867 0.9518987 1.0735608 1.0330142
000300 f1 74 7d 3f 85 ba 8e 3f 4e 94 28 3f b0 84 87 3f
       0.99006563 1.1150671 0.65851295 1.0587368
000310 07 71 72 3f 30 d4 6c 3f 33 04 7a 3f b2 22 96 3f
       0.94703716 0.9251127 0.9766266 1.1729338
000320 3d ce 8f 3f cb 62 77 3f 08 78 82 3f 96 a9 3c 3f
       1.1234814 0.9663512 1.0192881 0.7369627
000330 05 02 7f 3f d1 a8 5c 3f e2 c3 89 3f bc bc 94 3f
       0.99612457 0.86195093 1.0762904 1.1620097
000340 db f1 89 3f bf dd 87 3f 1e 42 7d 3f 1c 93 87 3f
       1.0776933 1.0614547 0.9892901 1.0591769
000350 56 26 57 3f 7f f9 92 3f ad d7 a2 3f 2d c5 6c 3f
       0.8404287 1.148239 1.2722069 0.92488366
000360 ba 4c 7b 3f 6e 2f 98 3f c1 ac 73 3f cf b8 87 3f
       0.9816395 1.1889474 0.95185477 1.0603274
000370 a9 c5 8f 3f 7d 42 90 3f c2 07 50 3f a9 c3 6b 3f
       1.1232196 1.1270291 0.8126184 0.9209543
000380 97 ef 81 3f 26 fe 81 3f 4e d4 89 3f 31 13 32 3f
       1.0151242 1.0155685 1.0767915 0.69560534
000390 52 ce 86 3f ca 78 74 3f 0b 0d 88 3f af 79 78 3f
       1.0531714 0.9549681 1.062898 0.97060674
0003a0 a3 b8 88 3f ff 60 70 3f 3f bc 6e 3f 21 48 5a 3f
       1.0681347 0.93898004 0.9325599 0.8526631
0003b0 4c 23 71 3f bd 5e 88 3f e7 8e 54 3f ab 28 9a 3f
       0.94194484 1.0653912 0.8303055 1.2043661
0003c0 7e d5 74 3f bd 1f 7b 3f c7 60 97 3f 5d c8 6b 3f
       0.95638263 0.98095304 1.1826409 0.92102605
0003d0 31 f3 7b 3f 20 45 8a 3f 42 b4 92 3f 66 fa 78 3f
       0.98417956 1.0802345 1.146126 0.9725708
0003e0 90 06 66 3f 5c 77 76 3f cc a9 97 3f d2 cc 91 3f
       0.89853764 0.9627588 1.1848693 1.1390631
0003f0 ce eb 8f 3f 94 c7 a1 3f e9 5c 97 3f d9 43 6e 3f
       1.1243837 1.2639031 1.1825229 0.9307228

model.bnorm1.bias f4 [256]
000000 19 f6 22 bf d5 76 e9 be f4 ee 06 bf 00 fe 83 bf
       -0.63656765 -0.45598474 -0.52708364 -1.031189
000010 30 f6 54 bf 3b 99 0b bf d3 9c 86 bf 3c 73 cf be
       -0.8318815 -0.54530686 -1.0516609 -0.40517604
000020 9f 00 0b bf d8 89 36 bf 0f f6 aa be 95 a8 4c bf
       -0.5429782 -0.7130408 -0.33390853 -0.79944736
000030 84 e5 91 bf 45 63 54 bf a2 e0 5d bf 94 5e 68 bf
       -1.1398168 -0.82963973 -0.8667089 -0.90769315
000040 02 29 22 bf 32 88 5b bf ad c6 16 bf 06 a1 34 bf
       -0.6334382 -0.8575469 -0.58896905 -0.705582
000050 f8 18 08 bf 8c 5e 54 bf b1 4e 38 bf 1f a6 b8 be
       -0.531631 -0.8295677 -0.71995074 -0.3606424
000060 c9 77 54 bf 79 28 16 bf 9b ec 72 bf f0 f9 82 bf
       -0.8299528 -0.58655506 -0.9489228 -1.0232525
000070 67 2e 5c bf 3a 3d 2e bf e2 62 82 bf c8 38 2c bf
       -0.86008304 -0.68062174 -1.0186427 -0.6727414
000080 2a 27 3f bf 84 e4 96 be 46 5c 0e bf 25 bd 0f bf
       -0.74669135 -0.2947122 -0.5560955 -0.56147987
000090 f5 ea 4b bf b5 97 05 bf b4 22 46 bf 00 57 58 bf
       -0.7965539 -0.5218461 -0.773967 -0.8450775
0000a0 f5 76 32 bf 3e b3 c0 be c3 18 08 bf c9 b5 3e bf
       -0.69712764 -0.3763675 -0.53162783 -0.7449613
0000b0 ea 13 5e bf 9a 83 20 bf d3 f8 5a bf ba 4d 7c bf
       -0.86749136 -0.6270081 -0.85535926 -0.985561
0000c0 42 58 18 bf 02 0b 8e bf 1f 51 44 bf 93 18 11 bf
       -0.5950967 -1.1097109 -0.7668628 -0.5667812
0000d0 f3 35 45 bf 18 cc 0a bf 7a b7 6c bf 73 5c 10 bf
       -0.77035445 -0.5421767 -0.92467463 -0.56391066
0000e0 3c 79 83 be e6 6e f5 be c6 73 28 bf 82 35 4a bf
       -0.25678432 -0.4793617 -0.65801656 -0.78987896
0000f0 b6 02 c9 be c9 53 85 bf 46 9f 17 bf 88 9d 5c bf
       -0.3925988 -1.0416194 -0.59227407 -0.86177874
000100 68 f5 48 bf c4 90 65 bf b0 67 9a bf 3b 51 2b bf
       -0.7849946 -0.8967402 -1.2062893 -0.6692082
000110 95 83 2c bf 20 96 1f bf 19 3c 1f bf 1b aa 56 bf
       -0.6738828 -0.6233845 -0.62201077 -0.8385331
000120 89 0a 35 bf c3 0c 59 bf 7a 4d f2 be 5e 30 35 bf
       -0.707192 -0.847851 -0.47324735 -0.7077693
000130 7b ff 5c bf d1 88 5b bf 7c 06 43 bf 26 f8 4b bf
       -0.8632733 -0.8575564 -0.7618177 -0.7967552
000140 b6 b8 6b bf f2 42 26 bf 2a 48 15 bf 47 9e 54 bf
       -0.9207872 -0.649459 -0.5831324 -0.8305401
000150 58 12 05 bf 8f 7f 8b bf 43 af 46 bf c2 a5 1b bf
       -0.51981115 -1.0898303 -0.7761118 -0.607998
000160 af 37 8e bf 89 90 5f bf 83 b1 46 bf 9e d7 48 bf
       -1.1110743 -0.8732992 -0.7761461 -0.78454006
000170 d8 31 44 bf 72 2e 08 bf bc 77 11 bf 2f 78 47 bf
       -0.76638556 -0.5319587 -0.56823325 -0.7791776
000180 41 d0 72 bf 20 bb 18 bf 4f f5 2b bf 6e 93 46 bf
       -0.9484902 -0.5966053 -0.67171186 -0.7756871
000190 19 55 03 bf 8b 26 53 bf df 0d e6 be af 79 ff be
       -0.51301724 -0.82480687 -0.44932458 -0.49897525
0001a0 1c 0b 26 bf a9 b3 a7 bf 90 e5 25 bf 2a a8 a1 bf
       -0.648607 -1.3101703 -0.6480341 -1.2629445
0001b0 d8 e0 25 bf d8 a6 4d bf 84 52 71 bf d6 46 28 bf
       -0.6479621 -0.8033271 -0.94266534 -0.6573309
0001c0 f7 ab 76 bf 7e 08 69 bf e2 fc 86 bf 33 18 86 bf
       -0.9635615 -0.91028583 -1.0545924 -1.0476135
0001d0 b9 f0 d6 be d0 c9 3b bf ea 95 09 bf 4d 4b 3b bf
       -0.41980532 -0.73354816 -0.53744376 -0.73161775
0001e0 ed fd 9e bf 43 b5 50 bf 09 90 90 bf d1 4b 3c bf
       -1.2421242 -0.81526583 -1.1293956 -0.73553187
0001f0 f6 e7 5f bf 5a 5b 1c bf 38 37 4d bf 8d b7 84 bf
       -0.8746332 -0.6107689 -0.8016238 -1.0368515
000200 b5 e1 0b bf 5e f8 9e be 12 3b 93 bf 56 67 0f bf
       -0.54641277 -0.31048864 -1.1502402 -0.56017053
000210 03 b1 65 bf af 30 95 bf 08 88 12 bf 00 d1 2b bf
       -0.89723223 -1.1655482 -0.5723882 -0.67115784
000220 61 fd 66 bf e0 1c cb be 25 23 67 bf b5 8e 48 bf
       -0.90230376 -0.39670467 -0.90288 -0.78342754
000230 34 37 43 bf df 0b 51 bf 19 52 3b bf 33 15 50 bf
       -0.7625611 -0.8165874 -0.73172146 -0.8128235
000240 fd 5f 2c bf b4 6d 4d bf 5e 4c 48 bf bf f2 16 bf
       -0.67333966 -0.8024552 -0.7824153 -0.5896415
000250 f3 14 9b be 3e e2 0d bf 8b fe 0a bf 24 e9 16 bf
       -0.3028942 -0.55423343 -0.5429465 -0.58949494
000260 28 0c 33 bf a6 1a 48 bf 3b 43 55 bf 63 dd 10 bf
       -0.69940424 -0.7816566 -0.8330571 -0.5658781
000270 4f 40 72 bf 87 04 21 bf 4d bb 27 bf b1 80 56 bf
       -0.9462938 -0.62897533 -0.65520173 -0.8379012
000280 68 3f e3 be 24 a6 8c bf 58 8a 88 bf 26 c3 f3 be
       -0.44384313 -1.0988202 -1.0667219 -0.47609824
000290 62 5c 73 bf 53 36 6a bf 3c d3 7c bf fe fc 67 bf
       -0.9506284 -0.9148914 -0.9875982 -0.9062041
0002a0 d1 49 53 bf e5 69 60 bf 82 95 64 bf 67 df ea be
       -0.8253451 -0.8766158 -0.8929063 -0.45873567
0002b0 20 52 1d bf a2 fc 58 bf 30 33 0e bf 80 09 16 bf
       -0.6145344 -0.8476049 -0.55546856 -0.58608246
0002c0 f8 35 28 bf 8d d2 49 bf 03 b2 62 bf 8d 72 3a bf
       -0.6570735 -0.788369 -0.88552874 -0.7283104
0002d0 c7 82 25 bf d6 47 46 bf de 54 d3 be d6 96 8d bf
       -0.64652675 -0.7745336 -0.41275686 -1.1061656
0002e0 25 31 81 bf df 73 24 bf 9d 03 38 bf d1 94 51 bf
       -1.0093123 -0.64239305 -0.71880513 -0.818677
0002f0 b7 8b 26 bf 65 cf 42 bf 21 21 35 bf 9c 29 85 bf
       -0.6505694 -0.7609771 -0.70753676 -1.0403323
000300 ac b5 2c bf 44 54 2b bf 47 02 b1 be 48 c9 4b bf
       -0.6746471 -0.66925454 -0.3457205 -0.79604006
000310 53 82 25 bf 12 b9 59 bf 52 35 fd be 4e dc 4a bf
       -0.64651984 -0.8504802 -0.49454743 -0.7924241
000320 61 16 50 bf a9 80 f8 be 66 f1 2f bf 5a ad 91 bf
       -0.8128415 -0.4853566 -0.6872772 -1.1381028
000330 5c b8 83 bf 5c 76 bf be e9 19 64 bf 52 17 65 bf
       -1.0290637 -0.3739499 -0.89102036 -0.8948871
000340 d4 c6 45 bf bb ce 45 bf e6 9c 0f bf 4a 11 49 bf
       -0.7725651 -0.7726857 -0.56098783 -0.78542006
000350 42 8c f1 be 5a a4 14 bf 89 14 59 bf 0b 41 ed be
       -0.4717732 -0.5806328 -0.8479696 -0.46338686
000360 6d 97 10 bf 79 75 5a bf 86 f6 5d bf ec 7c 23 bf
       -0.5648106 -0.853355 -0.8670429 -0.6386249
000370 73 b6 8e bf 4a 5c 45 bf 83 ad a1 bf 36 68 1a bf
       -1.1149429 -0.77093947 -1.2631077 -0.60315263
000380 23 fd 80 bf fa 79 42 bf 86 f8 66 bf 17 61 37 bf
       -1.0077251 -0.7596737 -0.90222967 -0.7163252
000390 1b 07 39 bf 96 f5 21 bf bf f7 4a bf 5d f5 23 bf
       -0.7227647 -0.6326536 -0.7928428 -0.6404627
0003a0 50 48 5d bf dc 90 7c bf 5c c4 37 bf b9 d9 27 bf
       -0.86438465 -0.9865854 -0.71783996 -0.65566593
0003b0 ac 49 41 bf 4d c1 66 bf 8b 62 0a bf 86 e8 3f bf
       -0.7550304 -0.90138704 -0.54056615 -0.7496418
0003c0 fa 0f 84 bf 55 34 63 bf dd 5e 40 bf bf f2 e4 be
       -1.0317376 -0.8875173 -0.7514475 -0.4471645
0003d0 6e a6 e4 be c0 5a 5f bf d8 53 3c bf 6e 5a 59 bf
       -0.44658226 -0.8724785 -0.73565435 -0.8490361
0003e0 0a 5e 37 bf 76 5a 09 bf ac dc 61 bf 66 5c 47 bf
       -0.7162787 -0.5365366 -0.88227344 -0.77875364
0003f0 1b 88 5e bf 24 84 35 bf f7 c5 6d bf 8a a0 4a bf
       -0.8692643 -0.70904756 -0.92880195 -0.79151213

model.bnorm1.running_mean f4 [256]
000000 da 39 9f c0 26 60 cf bf 64 06 d6 40 88 40 ef bf
       -4.975812 -1.6201217 6.68828 -1.8691568
000010 8e d6 22 c0 0b 58 1e c0 d8 63 6f 40 0d 23 65 c0
       -2.5443454 -2.4741237 3.740469 -3.5802643
000020 45 ef ce c0 22 59 d5 c0 43 7c 65 40 69 cc be c0
       -6.4667077 -6.6671305 3.5857093 -5.9624524
000030 5f 61 a5 40 bf b9 ad c0 c4 b8 a3 c0 82 0d a1 40
       5.168136 -5.428924 -5.1163044 5.032899
000040 53 ae db c0 f6 90 89 bf 5d 8d b8 40 ef 43 0b 40
       -6.86503 -1.0747364 5.7672563 2.1760213
000050 98 ec bc c0 9f 3f a8 40 30 4e 68 bf 6b 3c 62 3f
       -5.903881 5.2577662 -0.90744305 0.8837344
000060 25 a7 d8 c0 2d 45 84 bf 32 ce 81 40 3e ef 13 c0
       -6.7704034 -1.0333611 4.0564203 -2.3114772
000070 df 1a ca c0 8a 56 d6 c0 ab fa f2 3f 47 a3 03 c0
       -6.31578 -6.698064 1.8982748 -2.0568407
000080 1a 67 cd c0 d7 e8 a5 c0 79 c2 83 c0 a5 3c 95 40
       -6.4188356 -5.184673 -4.1174893 4.663653
000090 56 38 26 c0 0f 9a 5a 3f df b4 59 bf 70 48 d5 40
       -2.5971885 0.85391325 -0.8504161 6.6650925
0000a0 45 f3 b2 40 d7 fa 4c be ff 58 d9 c0 4e 17 88 c0
       5.592196 -0.20017563 -6.792114 -4.252845
0000b0 20 35 f9 3f c0 d2 c0 3f be e2 d2 40 ef 17 96 bf
       1.9469337 1.5064316 6.5901785 -1.1726054
0000c0 e3 c0 44 3f e0 67 bb c0 cf f1 1b 3e 55 4a 5f c0
       0.7685682 -5.85643 0.15228961 -3.4889119
0000d0 b0 f7 9e 40 81 e0 39 c0 e7 42 1a 3e f1 07 2e c0
       4.9677353 -2.9043276 0.15064584 -2.7192347
0000e0 6c 19 be c0 70 10 b4 c0 fe 8a d3 c0 6e dc 9e 40
       -5.9406033 -5.6270065 -6.610717 4.964408
0000f0 ba 7b e9 c0 af d2 2f c0 53 4f cb c0 c6 e1 71 40
       -7.2963533 -2.747234 -6.353433 3.779405
000100 12 43 f6 40 27 39 d8 3f 42 6d ba bf 16 e7 eb c0
       7.6956873 1.6892442 -1.4564593 -7.3719587
000110 a0 a9 b0 c0 18 dc 78 c0 68 92 7f c0 c6 e9 06 c0
       -5.520706 -3.8884335 -3.993311 -2.1080184
000120 ed 9c a4 c0 7b 45 60 40 b0 49 bd c0 5e 65 6e c0
       -5.144156 3.5042408 -5.915245 -3.724937
000130 ea 89 cf 40 d9 84 48 c0 6b 7f e9 c0 27 25 dd 40
       6.485585 -3.1331084 -7.296804 6.910785
000140 08 76 a3 40 9a fe c0 40 bb 3c d8 c0 f7 ed 3a bf
       5.108158 6.0310793 -6.7574134 -0.73019356
000150 07 a6 6f c0 fd c1 7b 40 6f c8 92 c0 75 d2 b4 c0
       -3.7445085 3.933715 -4.586967 -5.6506906
000160 3f 9a ea bf fa ec cb bf 5f 2c a2 40 c0 80 ca 40
       -1.8328322 -1.5931695 5.0679164 6.3282166
000170 34 e9 77 3e 35 d1 7d c0 f4 96 96 c0 7b 93 2d c0
       0.24210054 -3.965894 -4.705927 -2.7121265
000180 69 d7 c1 40 18 97 4e c0 1e 0d c6 40 27 00 6f bf
       6.057545 -3.227972 6.189101 -0.9335961
000190 80 bd 2c c0 c8 88 bc bf 44 01 b4 c0 36 f9 ba bf
       -2.6990662 -1.4729242 -5.6251545 -1.4607303
0001a0 8f 1b a6 40 d5 09 3c 40 01 69 8f c0 8c 1b 8e 40
       5.190864 2.9381 -4.481568 4.4408627
0001b0 dd 29 c9 40 06 ea 66 c0 59 cb 32 3e 09 af 72 40
       6.2863603 -3.6080337 0.17460383 3.7919333
0001c0 5a 15 a8 40 7c 30 12 c0 fb 5f c3 40 b5 78 dd 3f
       5.2526064 -2.2842093 6.1054664 1.7302462
0001d0 47 ab 8f c0 a9 ab 1c c0 bf fb 47 40 6f 1a a0 3f
       -4.489658 -2.4479773 3.1247404 1.2508067
0001e0 37 2e 50 c0 47 84 ae 40 3a 46 c9 40 e4 3e ca c0
       -3.2528207 5.453647 6.2898226 -6.320177
0001f0 1d ce 90 3f 5d 04 3e 3f 29 b0 76 40 ec 97 c6 3f
       1.1312901 0.7422541 3.854502 1.5515113
000200 b5 e6 1c c1 26 b8 92 c0 59 58 2d c0 e3 af 85 bf
       -9.806325 -4.584979 -2.7085173 -1.0444301
000210 fc d8 7f 40 8f 7d 0f c0 10 21 d2 c0 7e cd 8a c0
       3.9976187 -2.2420385 -6.566536 -4.3375845
000220 65 4d 80 40 d0 c2 54 c0 1a 10 d5 c0 af 16 95 c0
       4.0094476 -3.3243904 -6.6582155 -4.659019
000230 36 71 00 c1 33 8c 4e bf 7a cf c1 40 d6 89 74 40
       -8.027639 -0.8068268 6.0565767 3.8209128
000240 ad 6b a0 c0 62 81 89 c0 4b 58 ea 40 dd ff c0 c0
       -5.013144 -4.297044 7.323278 -6.0312333
000250 72 48 7b 3e 99 32 f5 c0 ff 08 32 c0 80 28 97 be
       0.24539354 -7.6624265 -2.781799 -0.29523087
000260 06 f5 f3 c0 02 f1 e9 be 09 55 90 40 3e 3d dd c0
       -7.62366 -0.45691687 4.5103803 -6.913726
000270 e6 60 29 c0 c6 a4 96 40 3b f1 fd 3d d9 2b a2 40
       -2.6465392 4.707614 0.12399527 5.0678525
000280 fc 09 ff c0 5d 4d 96 be c1 5e 54 3f 15 3f d1 c0
       -7.969969 -0.29355898 0.82957083 -6.5389504
000290 13 e6 0e bf 97 54 e2 c0 da 68 98 c0 30 09 1c c0
       -0.55819815 -7.072826 -4.7627993 -2.4380608
0002a0 6c 06 03 c1 1e c0 89 c0 24 8a 13 c0 2b 00 d3 be
       -8.189068 -4.304702 -2.3053064 -0.41211066
0002b0 1f aa 07 c0 06 89 bf 40 21 1f b8 c0 9e 2e 55 c0
       -2.1197584 5.9854765 -5.7538 -3.3309703
0002c0 e2 12 82 c0 ff 66 1c be 86 15 9c c0 7b ef 4e 40
       -4.064805 -0.15273665 -4.8776274 3.2333667
0002d0 ca 3a c7 40 2e 6f ab 40 a1 12 06 40 12 a2 b0 bb
       6.2259264 5.3573217 2.094887 -0.005390414
0002e0 21 23 b1 40 bc b9 09 c0 de 82 ac c0 b5 30 08 41
       5.535538 -2.1519613 -5.390975 8.511891
0002f0 67 db ac c0 f5 f7 a2 c0 08 b9 97 c0 77 f1 93 40
       -5.4017825 -5.092768 -4.741337 4.6232257
000300 ef b6 9f 3f 13 fd b8 40 6c a4 7c 3f 8f 10 e6 c0
       1.2477702 5.780893 0.9868839 -7.1895213
000310 d9 4e a4 40 3c 39 22 40 69 e9 ae 3f 26 14 c6 c0
       5.134625 2.5347433 1.3664981 -6.1899595
000320 34 11 f1 c0 7d bf ce 40 3f c6 2f 3f 42 18 84 40
       -7.53335 6.460875 0.68661875 4.127961
000330 8b 8f 88 40 3d 23 85 bf 5a e1 e6 bf d1 83 c2 c0
       4.2675223 -1.0401379 -1.8037522 -6.078591
000340 04 4c 8b 40 2e 55 d7 40 83 c9 b2 c0 58 2c 6a c0
       4.3530293 6.729148 -5.5870986 -3.6589565
000350 4c c0 63 40 16 6f 4c c0 31 a5 97 c0 1a 1e 64 c0
       3.5586119 -3.1942801 -4.738915 -3.5643373
000360 74 79 b7 40 8b 54 b6 c0 e3 18 ca bf 76 85 fc c0
       5.733576 -5.69782 -1.5788845 -7.8912916
000370 45 5d 60 3e 0d b7 0d c0 41 6e af 40 ed 81 e5 40
       0.2191058 -2.2142975 5.4822087 7.17211
000380 b3 15 69 c0 7b 4b db c0 f3 ef d7 40 17 6a ee 3e
       -3.6419494 -6.852964 6.7480407 0.46565315
000390 29 c3 a4 40 1a 84 d1 40 ed fe ce c0 20 88 d8 c0
       5.1488233 6.5473757 -6.468619 -6.766617
0003a0 58 b0 4c 40 ba 16 96 40 dc 70 3b c0 8b a1 ee bf
       3.1982632 4.6902742 -2.9287634 -1.8643049
0003b0 6d c1 4d 40 ea 0e 8d 3f e9 3c 35 c0 50 20 2c c0
       3.2149308 1.1020176 -2.8318427 -2.6894722
0003c0 72 17 39 40 c7 3b 69 bf b9 cd f3 c0 5d c9 3e c0
       2.892056 -0.9110684 -7.6188626 -2.9810402
0003d0 8f 69 c0 c0 76 a3 a6 c0 5e e7 b2 40 80 41 87 40
       -6.0128856 -5.2074537 5.590743 4.2267456
0003e0 71 9a 2d 40 65 b4 d8 40 93 27 b9 c0 87 bb b3 c0
       2.7125514 6.772021 -5.786081 -5.6166415
0003f0 4e ba 99 c0 dd 88 b7 c0 08 42 3a 40 d0 95 b1 40
       -4.8039923 -5.735457 2.9102802 5.5495377

model.bnorm1.running_var f4 [256]
000000 9b ed 8e 41 e4 d5 3a 40 74 0a 43 41 f3 49 5f 41
       17.866018 2.9193048 12.190052 13.955554
000010 5a 1e 7e 41 aa 20 3e 41 e5 c6 1e 41 53 11 88 41
       15.88241 11.882975 9.923558 17.00846
000020 49 31 98 41 b8 19 87 41 ec 48 59 41 5a 6f 8c 41
       19.024065 16.887558 13.580303 17.55437
000030 e0 92 0d 41 6a 68 02 42 83 97 64 41 8d cc 03 41
       8.848358 32.601967 14.28699 8.237439
000040 50 5f bc 41 fa d1 55 41 95 69 38 41 31 5d 24 41
       23.54654 13.363764 11.525777 10.272752
000050 16 ca 2a 41 18 bf 36 41 64 36 ac 41 48 53 7b 41
       10.674337 11.421654 21.526558 15.707832
000060 a8 65 97 41 89 d5 74 41 bd 57 4d 41 b6 0d 2b 41
       18.924637 15.302133 12.8339205 10.690847
000070 15 9b 81 41 14 db 93 41 5a 59 2e 41 db 83 9d 41
       16.200724 18.481972 10.896814 19.689383
000080 fc 6b cb 41 86 22 a9 41 f7 cb 4a 41 9a 9f 4e 41
       25.427727 21.141857 12.674796 12.913965
000090 3a df 31 41 e2 a1 64 41 3c 70 34 41 7d 60 16 41
       11.116999 14.289522 11.277401 9.398557
0000a0 38 4a 20 41 78 07 07 41 fe df 58 41 0b 26 5b 41
       10.01812 8.439323 13.554686 13.696788
0000b0 88 9a 0a 41 b5 02 44 41 7b 21 1f 41 2b 0e 1d 41
       8.662727 12.250661 9.945674 9.815959
0000c0 b1 65 12 41 34 77 82 41 6a e4 49 41 56 02 68 41
       9.149827 16.308205 12.618265 14.50057
0000d0 92 c1 15 41 ba 32 2a 41 84 4b 3b 41 95 3c 73 41
       9.359758 10.637384 11.705936 15.202291
0000e0 84 51 71 41 06 5e a0 41 69 88 ca 41 24 10 20 41
       15.082401 20.04591 25.316607 10.003941
0000f0 41 be 80 41 7b 05 94 41 3c 0a 86 41 32 f4 28 41
       16.092897 18.502676 16.754997 10.559618
000100 c3 fc 6a 41 8f 36 49 41 d0 8a 79 41 8b 67 7b 41
       14.686709 12.57582 15.59639 15.712779
000110 53 d1 4c 41 2d 7d 5f 41 72 e4 c0 41 1f b0 20 41
       12.801105 13.9680605 24.111546 10.042998
000120 98 9c 24 41 45 35 15 41 cf e2 1d 41 f8 1f a8 41
       10.288231 9.325505 9.867873 21.01561
000130 6d 65 14 41 7f 37 94 41 f4 d5 6d 41 05 ca 82 41
       9.274762 18.527098 14.864735 16.348642
000140 f7 fc 4c 41 a3 68 31 41 5f f1 2e 41 c7 74 4f 41
       12.811759 11.088046 10.9339285 12.96601
000150 1c 05 6a 41 35 65 01 41 88 0b 36 41 94 82 96 41
       14.626247 8.087209 11.377815 18.813759
000160 b5 3a 7c 41 db 44 83 41 ce 9f 23 41 18 7b 1f 41
       15.764333 16.40862 10.226515 9.967552
000170 c5 70 53 41 01 ab 9f 41 b2 3b 94 41 a5 29 58 41
       13.215032 19.958498 18.529148 13.510167
000180 95 0f 17 41 24 26 21 41 50 e5 39 41 42 88 64 41
       9.441304 10.071812 11.6184845 14.283266
000190 c2 68 1a 41 49 17 75 41 c9 86 3d 41 00 32 28 41
       9.650576 15.318185 11.845407 10.512207
0001a0 7c 6e 15 41 99 e1 1e 41 b3 80 78 41 15 f1 0b 41
       9.339474 9.930078 15.531421 8.746358
0001b0 f3 f7 53 41 ae 85 85 41 ad ef 18 41 6f d5 2d 41
       13.2480345 16.690273 9.558515 10.864608
0001c0 b6 b9 ff 40 3e 1d 8b 41 f5 1c 1f 41 0f 48 45 41
       7.99142 17.389278 9.94457 12.330092
0001d0 56 33 31 41 ce b0 a3 41 07 9b 2c 41 0a 79 10 41
       11.075033 20.46133 10.787848 9.029551
0001e0 67 00 8c 41 97 14 3c 41 dc 4d 26 41 b7 de cb 41
       17.500196 11.755027 10.394009 25.483747
0001f0 e9 ee 3d 41 aa 31 02 41 85 ed 1e 41 e7 c5 05 41
       11.870828 8.137125 9.932988 8.360816
000200 a5 1d 90 41 2b a9 8c 41 7b 67 81 41 c5 67 6b 41
       18.014475 17.582602 16.175528 14.712834
000210 8b 69 1d 41 6e 99 6f 41 ac 68 95 41 d2 ca 5d 41
       9.838267 14.974958 18.67611 13.862017
000220 89 4e 33 41 49 f3 2e 41 af ec 5d 41 21 29 8c 41
       11.206674 10.934396 13.870284 17.520082
000230 d3 cf a3 41 f4 d7 33 41 83 f2 3a 41 ca 58 d0 40
       20.476477 11.240223 11.684207 6.5108385
000240 a5 4f 8e 41 08 6e 46 41 7c cf 2d 41 d6 9e 25 41
       17.788889 12.401863 10.863155 10.351278
000250 6b c7 1e 41 83 35 67 41 0a 27 7d 41 b1 e3 15 41
       9.923686 14.450564 15.822031 9.368089
000260 c6 4e aa 41 95 15 41 41 8a 80 17 41 32 d8 23 41
       21.288464 12.067769 9.468882 10.240282
000270 c0 ab 19 41 fc b0 3e 41 0f 4b 00 41 ab 47 2b 41
       9.604431 11.918209 8.018325 10.704997
000280 8b 83 53 41 6c d0 60 41 88 b5 1d 41 af 44 49 41
       13.219615 14.050884 9.856819 12.579268
000290 c1 9c 1f 41 01 94 6f 41 e2 1c 86 41 f3 77 57 41
       9.97577 14.973634 16.764103 13.4667845
0002a0 4b b8 58 41 d3 32 94 41 f7 ae 7f 41 dd 38 e1 40
       13.544993 18.524817 15.980216 7.0381913
0002b0 2c 28 00 41 a0 90 3c 41 d3 ba 99 41 d0 c9 99 41
       8.009808 11.785309 19.216223 19.223541
0002c0 ab db b1 41 d9 f4 35 41 29 22 2d 41 58 1f 19 41
       22.23226 11.372277 10.82084 9.570152
0002d0 d0 29 28 41 f9 fb 1b 41 ae 19 49 41 e2 c6 30 41
       10.510208 9.749017 12.568769 11.048555
0002e0 e9 10 05 41 87 00 23 41 f8 3b b2 41 49 09 44 41
       8.316628 10.187629 22.279282 12.252267
0002f0 1e 2c 3a 41 d4 fe 5c 41 69 ed 7f 41 6e 1f 19 41
       11.635771 13.812214 15.995461 9.570173
000300 9b d4 24 41 a8 c7 40 41 f7 05 09 41 66 99 7b 41
       10.301906 12.048744 8.563956 15.724951
000310 4f 1b 59 41 ce e0 47 41 0c dd 3a 41 12 34 45 41
       13.569167 12.492384 11.6789665 12.3252125
000320 99 b3 8d 41 fc a5 44 41 8a cd 50 41 df 0d 0b 41
       17.712694 12.290524 13.05018 8.6908865
000330 e2 11 04 41 92 45 b2 41 28 7d 77 41 19 ba 2e 41
       8.254366 22.28397 15.468056 10.920434
000340 49 8a 15 41 07 97 3d 41 24 08 96 41 68 6b 08 41
       9.346261 11.849372 18.753975 8.526222
000350 82 ec 42 41 91 01 97 41 b6 ba 9e 41 07 75 55 41
       12.182741 18.875765 19.841167 13.341071
000360 0b 91 21 41 9d 72 88 41 8e 53 51 41 47 a2 8b 41
       10.097911 17.055964 13.082899 17.454237
000370 1a 56 64 41 b5 f1 64 41 60 9e e5 40 0d 18 4f 41
       14.271021 14.3090105 7.175583 12.943372
000380 4d d5 20 41 47 04 47 41 0a 62 2c 41 61 f6 4a 41
       10.052075 12.438544 10.773935 12.685151
000390 7a fa e2 40 f8 0e 46 41 b0 19 84 41 45 f9 85 41
       7.0930758 12.3786545 16.512543 16.746714
0003a0 b0 64 2b 41 30 41 1a 41 7c 42 2b 41 a6 e5 2e 41
       10.712082 9.640915 10.703732 10.9310665
0003b0 ed 83 4e 41 ae 3f 0e 41 ad c2 17 41 65 b6 b4 41
       12.907208 8.890547 9.485028 22.58906
0003c0 fe 17 e7 40 05 a6 27 41 b3 8e 83 41 e6 31 65 41
       7.2216787 10.478032 16.444677 14.324682
0003d0 1a e3 56 41 c1 e6 5e 41 e3 41 3b 41 79 d6 1a 41
       13.430445 13.931336 11.703586 9.6773615
0003e0 d8 7b 22 41 e3 bd 25 41 0c b9 79 41 dc 55 6d 41
       10.155235 10.358859 15.607677 14.833462
0003f0 f6 3b 69 41 e3 34 c7 41 9c ad 2c 41 a7 74 58 41
       14.577139 24.900824 10.792385 13.52848
